{"format": "layers-model", "generatedBy": "keras v2.15.0", "convertedBy": "TensorFlow.js Converter v4.17.0", "modelTopology": {"keras_version": "2.15.0", "backend": "tensorflow", "model_config": {"class_name": "Functional", "config": {"name": "model_4", "trainable": true, "layers": [{"class_name": "InputLayer", "config": {"batch_input_shape": [null, 50], "dtype": "int32", "sparse": false, "ragged": false, "name": "input_10"}, "name": "input_10", "inbound_nodes": []}, {"class_name": "Embedding", "config": {"name": "embedding_9", "trainable": true, "dtype": "float32", "batch_input_shape": [null, 50], "input_dim": 28, "output_dim": 512, "embeddings_initializer": {"module": "keras.initializers", "class_name": "RandomUniform", "config": {"minval": -0.05, "maxval": 0.05, "seed": null}, "registered_name": null}, "embeddings_regularizer": null, "activity_regularizer": null, "embeddings_constraint": null, "mask_zero": false, "input_length": 50}, "name": "embedding_9", "inbound_nodes": [[["input_10", 0, 0, {}]]]}, {"class_name": "InputLayer", "config": {"batch_input_shape": [null, 50], "dtype": "int32", "sparse": false, "ragged": false, "name": "input_11"}, "name": "input_11", "inbound_nodes": []}, {"class_name": "Bidirectional", "config": {"name": "bidirectional_4", "trainable": true, "dtype": "float32", "layer": {"module": "keras.layers", "class_name": "LSTM", "config": {"name": "lstm_18", "trainable": true, "dtype": "float32", "return_sequences": true, "return_state": false, "go_backwards": false, "stateful": false, "unroll": false, "time_major": false, "units": 256, "activation": "tanh", "recurrent_activation": "sigmoid", "use_bias": true, "kernel_initializer": {"module": "keras.initializers", "class_name": "GlorotUniform", "config": {"seed": null}, "registered_name": null}, "recurrent_initializer": {"module": "keras.initializers", "class_name": "Orthogonal", "config": {"gain": 1.0, "seed": null}, "registered_name": null}, "bias_initializer": {"module": "keras.initializers", "class_name": "Zeros", "config": {}, "registered_name": null}, "unit_forget_bias": true, "kernel_regularizer": null, "recurrent_regularizer": null, "bias_regularizer": null, "activity_regularizer": null, "kernel_constraint": null, "recurrent_constraint": null, "bias_constraint": null, "dropout": 0.0, "recurrent_dropout": 0.0, "implementation": 2}, "registered_name": null}, "merge_mode": "concat"}, "name": "bidirectional_4", "inbound_nodes": [[["embedding_9", 0, 0, {}]]]}, {"class_name": "Embedding", "config": {"name": "embedding_10", "trainable": true, "dtype": "float32", "batch_input_shape": [null, 50], "input_dim": 61, "output_dim": 512, "embeddings_initializer": {"module": "keras.initializers", "class_name": "RandomUniform", "config": {"minval": -0.05, "maxval": 0.05, "seed": null}, "registered_name": null}, "embeddings_regularizer": null, "activity_regularizer": null, "embeddings_constraint": null, "mask_zero": false, "input_length": 50}, "name": "embedding_10", "inbound_nodes": [[["input_11", 0, 0, {}]]]}, {"class_name": "LSTM", "config": {"name": "lstm_19", "trainable": true, "dtype": "float32", "return_sequences": true, "return_state": true, "go_backwards": false, "stateful": false, "unroll": false, "time_major": false, "units": 512, "activation": "tanh", "recurrent_activation": "sigmoid", "use_bias": true, "kernel_initializer": {"module": "keras.initializers", "class_name": "GlorotUniform", "config": {"seed": null}, "registered_name": null}, "recurrent_initializer": {"module": "keras.initializers", "class_name": "Orthogonal", "config": {"gain": 1.0, "seed": null}, "registered_name": null}, "bias_initializer": {"module": "keras.initializers", "class_name": "Zeros", "config": {}, "registered_name": null}, "unit_forget_bias": true, "kernel_regularizer": null, "recurrent_regularizer": null, "bias_regularizer": null, "activity_regularizer": null, "kernel_constraint": null, "recurrent_constraint": null, "bias_constraint": null, "dropout": 0.0, "recurrent_dropout": 0.0, "implementation": 2}, "name": "lstm_19", "inbound_nodes": [[["bidirectional_4", 0, 0, {}]]]}, {"class_name": "LSTM", "config": {"name": "lstm_20", "trainable": true, "dtype": "float32", "return_sequences": true, "return_state": false, "go_backwards": false, "stateful": false, "unroll": false, "time_major": false, "units": 512, "activation": "tanh", "recurrent_activation": "sigmoid", "use_bias": true, "kernel_initializer": {"module": "keras.initializers", "class_name": "GlorotUniform", "config": {"seed": null}, "registered_name": null}, "recurrent_initializer": {"module": "keras.initializers", "class_name": "Orthogonal", "config": {"gain": 1.0, "seed": null}, "registered_name": null}, "bias_initializer": {"module": "keras.initializers", "class_name": "Zeros", "config": {}, "registered_name": null}, "unit_forget_bias": true, "kernel_regularizer": null, "recurrent_regularizer": null, "bias_regularizer": null, "activity_regularizer": null, "kernel_constraint": null, "recurrent_constraint": null, "bias_constraint": null, "dropout": 0.0, "recurrent_dropout": 0.0, "implementation": 2}, "name": "lstm_20", "inbound_nodes": [[["embedding_10", 0, 0, {}], ["lstm_19", 0, 1, {}], ["lstm_19", 0, 2, {}]]]}, {"class_name": "LSTM", "config": {"name": "lstm_21", "trainable": true, "dtype": "float32", "return_sequences": true, "return_state": false, "go_backwards": false, "stateful": false, "unroll": false, "time_major": false, "units": 512, "activation": "tanh", "recurrent_activation": "sigmoid", "use_bias": true, "kernel_initializer": {"module": "keras.initializers", "class_name": "GlorotUniform", "config": {"seed": null}, "registered_name": null}, "recurrent_initializer": {"module": "keras.initializers", "class_name": "Orthogonal", "config": {"gain": 1.0, "seed": null}, "registered_name": null}, "bias_initializer": {"module": "keras.initializers", "class_name": "Zeros", "config": {}, "registered_name": null}, "unit_forget_bias": true, "kernel_regularizer": null, "recurrent_regularizer": null, "bias_regularizer": null, "activity_regularizer": null, "kernel_constraint": null, "recurrent_constraint": null, "bias_constraint": null, "dropout": 0.0, "recurrent_dropout": 0.0, "implementation": 2}, "name": "lstm_21", "inbound_nodes": [[["lstm_20", 0, 0, {}]]]}, {"class_name": "Dense", "config": {"name": "dense_10", "trainable": true, "dtype": "float32", "units": 64, "activation": "relu", "use_bias": true, "kernel_initializer": {"module": "keras.initializers", "class_name": "GlorotUniform", "config": {"seed": null}, "registered_name": null}, "bias_initializer": {"module": "keras.initializers", "class_name": "Zeros", "config": {}, "registered_name": null}, "kernel_regularizer": null, "bias_regularizer": null, "activity_regularizer": null, "kernel_constraint": null, "bias_constraint": null}, "name": "dense_10", "inbound_nodes": [[["lstm_21", 0, 0, {}]]]}, {"class_name": "Dense", "config": {"name": "dense_11", "trainable": true, "dtype": "float32", "units": 61, "activation": "softmax", "use_bias": true, "kernel_initializer": {"module": "keras.initializers", "class_name": "GlorotUniform", "config": {"seed": null}, "registered_name": null}, "bias_initializer": {"module": "keras.initializers", "class_name": "Zeros", "config": {}, "registered_name": null}, "kernel_regularizer": null, "bias_regularizer": null, "activity_regularizer": null, "kernel_constraint": null, "bias_constraint": null}, "name": "dense_11", "inbound_nodes": [[["dense_10", 0, 0, {}]]]}], "input_layers": [["input_10", 0, 0], ["input_11", 0, 0]], "output_layers": [["dense_11", 0, 0]]}}, "training_config": {"loss": "sparse_categorical_crossentropy", "metrics": [[{"class_name": "MeanMetricWrapper", "config": {"name": "accuracy", "dtype": "float32", "fn": "sparse_categorical_accuracy"}}]], "weighted_metrics": null, "loss_weights": null, "optimizer_config": {"class_name": "Adam", "config": {"name": "Adam", "learning_rate": 0.0010000000474974513, "decay": 0.0, "beta_1": 0.8999999761581421, "beta_2": 0.9990000128746033, "epsilon": 1e-07, "amsgrad": false}}}}, "weightsManifest": [{"paths": ["group1-shard1of8.bin", "group1-shard2of8.bin", "group1-shard3of8.bin", "group1-shard4of8.bin", "group1-shard5of8.bin", "group1-shard6of8.bin", "group1-shard7of8.bin", "group1-shard8of8.bin"], "weights": [{"name": "bidirectional_4/forward_lstm_18/lstm_cell/kernel", "shape": [512, 1024], "dtype": "float32"}, {"name": "bidirectional_4/forward_lstm_18/lstm_cell/recurrent_kernel", "shape": [256, 1024], "dtype": "float32"}, {"name": "bidirectional_4/forward_lstm_18/lstm_cell/bias", "shape": [1024], "dtype": "float32"}, {"name": "bidirectional_4/backward_lstm_18/lstm_cell/kernel", "shape": [512, 1024], "dtype": "float32"}, {"name": "bidirectional_4/backward_lstm_18/lstm_cell/recurrent_kernel", "shape": [256, 1024], "dtype": "float32"}, {"name": "bidirectional_4/backward_lstm_18/lstm_cell/bias", "shape": [1024], "dtype": "float32"}, {"name": "dense_10/kernel", "shape": [512, 64], "dtype": "float32"}, {"name": "dense_10/bias", "shape": [64], "dtype": "float32"}, {"name": "dense_11/kernel", "shape": [64, 61], "dtype": "float32"}, {"name": "dense_11/bias", "shape": [61], "dtype": "float32"}, {"name": "embedding_10/embeddings", "shape": [61, 512], "dtype": "float32"}, {"name": "embedding_9/embeddings", "shape": [28, 512], "dtype": "float32"}, {"name": "lstm_19/lstm_cell/kernel", "shape": [512, 2048], "dtype": "float32"}, {"name": "lstm_19/lstm_cell/recurrent_kernel", "shape": [512, 2048], "dtype": "float32"}, {"name": "lstm_19/lstm_cell/bias", "shape": [2048], "dtype": "float32"}, {"name": "lstm_20/lstm_cell/kernel", "shape": [512, 2048], "dtype": "float32"}, {"name": "lstm_20/lstm_cell/recurrent_kernel", "shape": [512, 2048], "dtype": "float32"}, {"name": "lstm_20/lstm_cell/bias", "shape": [2048], "dtype": "float32"}, {"name": "lstm_21/lstm_cell/kernel", "shape": [512, 2048], "dtype": "float32"}, {"name": "lstm_21/lstm_cell/recurrent_kernel", "shape": [512, 2048], "dtype": "float32"}, {"name": "lstm_21/lstm_cell/bias", "shape": [2048], "dtype": "float32"}]}]}