{"format": "layers-model", "generatedBy": "keras v2.15.0", "convertedBy": "TensorFlow.js Converter v4.17.0", "modelTopology": {"keras_version": "2.15.0", "backend": "tensorflow", "model_config": {"class_name": "Functional", "config": {"name": "model_1", "trainable": true, "layers": [{"class_name": "InputLayer", "config": {"batch_input_shape": [null, 50], "dtype": "int32", "sparse": false, "ragged": false, "name": "input_3"}, "name": "input_3", "inbound_nodes": []}, {"class_name": "Embedding", "config": {"name": "embedding_2", "trainable": true, "dtype": "float32", "batch_input_shape": [null, 50], "input_dim": 28, "output_dim": 128, "embeddings_initializer": {"module": "keras.initializers", "class_name": "RandomUniform", "config": {"minval": -0.05, "maxval": 0.05, "seed": null}, "registered_name": null}, "embeddings_regularizer": null, "activity_regularizer": null, "embeddings_constraint": null, "mask_zero": false, "input_length": 50}, "name": "embedding_2", "inbound_nodes": [[["input_3", 0, 0, {}]]]}, {"class_name": "InputLayer", "config": {"batch_input_shape": [null, 50], "dtype": "int32", "sparse": false, "ragged": false, "name": "input_4"}, "name": "input_4", "inbound_nodes": []}, {"class_name": "Bidirectional", "config": {"name": "bidirectional_1", "trainable": true, "dtype": "float32", "layer": {"module": "keras.layers", "class_name": "LSTM", "config": {"name": "lstm_4", "trainable": true, "dtype": "float32", "return_sequences": true, "return_state": false, "go_backwards": false, "stateful": false, "unroll": false, "time_major": false, "units": 128, "activation": "tanh", "recurrent_activation": "sigmoid", "use_bias": true, "kernel_initializer": {"module": "keras.initializers", "class_name": "GlorotUniform", "config": {"seed": null}, "registered_name": null}, "recurrent_initializer": {"module": "keras.initializers", "class_name": "Orthogonal", "config": {"gain": 1.0, "seed": null}, "registered_name": null}, "bias_initializer": {"module": "keras.initializers", "class_name": "Zeros", "config": {}, "registered_name": null}, "unit_forget_bias": true, "kernel_regularizer": null, "recurrent_regularizer": null, "bias_regularizer": null, "activity_regularizer": null, "kernel_constraint": null, "recurrent_constraint": null, "bias_constraint": null, "dropout": 0.0, "recurrent_dropout": 0.0, "implementation": 2}, "registered_name": null}, "merge_mode": "concat"}, "name": "bidirectional_1", "inbound_nodes": [[["embedding_2", 0, 0, {}]]]}, {"class_name": "Embedding", "config": {"name": "embedding_3", "trainable": true, "dtype": "float32", "batch_input_shape": [null, 50], "input_dim": 61, "output_dim": 128, "embeddings_initializer": {"module": "keras.initializers", "class_name": "RandomUniform", "config": {"minval": -0.05, "maxval": 0.05, "seed": null}, "registered_name": null}, "embeddings_regularizer": null, "activity_regularizer": null, "embeddings_constraint": null, "mask_zero": false, "input_length": 50}, "name": "embedding_3", "inbound_nodes": [[["input_4", 0, 0, {}]]]}, {"class_name": "LSTM", "config": {"name": "lstm_5", "trainable": true, "dtype": "float32", "return_sequences": true, "return_state": true, "go_backwards": false, "stateful": false, "unroll": false, "time_major": false, "units": 256, "activation": "tanh", "recurrent_activation": "sigmoid", "use_bias": true, "kernel_initializer": {"module": "keras.initializers", "class_name": "GlorotUniform", "config": {"seed": null}, "registered_name": null}, "recurrent_initializer": {"module": "keras.initializers", "class_name": "Orthogonal", "config": {"gain": 1.0, "seed": null}, "registered_name": null}, "bias_initializer": {"module": "keras.initializers", "class_name": "Zeros", "config": {}, "registered_name": null}, "unit_forget_bias": true, "kernel_regularizer": null, "recurrent_regularizer": null, "bias_regularizer": null, "activity_regularizer": null, "kernel_constraint": null, "recurrent_constraint": null, "bias_constraint": null, "dropout": 0.0, "recurrent_dropout": 0.0, "implementation": 2}, "name": "lstm_5", "inbound_nodes": [[["bidirectional_1", 0, 0, {}]]]}, {"class_name": "LSTM", "config": {"name": "lstm_6", "trainable": true, "dtype": "float32", "return_sequences": true, "return_state": false, "go_backwards": false, "stateful": false, "unroll": false, "time_major": false, "units": 256, "activation": "tanh", "recurrent_activation": "sigmoid", "use_bias": true, "kernel_initializer": {"module": "keras.initializers", "class_name": "GlorotUniform", "config": {"seed": null}, "registered_name": null}, "recurrent_initializer": {"module": "keras.initializers", "class_name": "Orthogonal", "config": {"gain": 1.0, "seed": null}, "registered_name": null}, "bias_initializer": {"module": "keras.initializers", "class_name": "Zeros", "config": {}, "registered_name": null}, "unit_forget_bias": true, "kernel_regularizer": null, "recurrent_regularizer": null, "bias_regularizer": null, "activity_regularizer": null, "kernel_constraint": null, "recurrent_constraint": null, "bias_constraint": null, "dropout": 0.0, "recurrent_dropout": 0.0, "implementation": 2}, "name": "lstm_6", "inbound_nodes": [[["embedding_3", 0, 0, {}], ["lstm_5", 0, 1, {}], ["lstm_5", 0, 2, {}]]]}, {"class_name": "LSTM", "config": {"name": "lstm_7", "trainable": true, "dtype": "float32", "return_sequences": true, "return_state": false, "go_backwards": false, "stateful": false, "unroll": false, "time_major": false, "units": 128, "activation": "tanh", "recurrent_activation": "sigmoid", "use_bias": true, "kernel_initializer": {"module": "keras.initializers", "class_name": "GlorotUniform", "config": {"seed": null}, "registered_name": null}, "recurrent_initializer": {"module": "keras.initializers", "class_name": "Orthogonal", "config": {"gain": 1.0, "seed": null}, "registered_name": null}, "bias_initializer": {"module": "keras.initializers", "class_name": "Zeros", "config": {}, "registered_name": null}, "unit_forget_bias": true, "kernel_regularizer": null, "recurrent_regularizer": null, "bias_regularizer": null, "activity_regularizer": null, "kernel_constraint": null, "recurrent_constraint": null, "bias_constraint": null, "dropout": 0.0, "recurrent_dropout": 0.0, "implementation": 2}, "name": "lstm_7", "inbound_nodes": [[["lstm_6", 0, 0, {}]]]}, {"class_name": "Dense", "config": {"name": "dense_2", "trainable": true, "dtype": "float32", "units": 32, "activation": "relu", "use_bias": true, "kernel_initializer": {"module": "keras.initializers", "class_name": "GlorotUniform", "config": {"seed": null}, "registered_name": null}, "bias_initializer": {"module": "keras.initializers", "class_name": "Zeros", "config": {}, "registered_name": null}, "kernel_regularizer": null, "bias_regularizer": null, "activity_regularizer": null, "kernel_constraint": null, "bias_constraint": null}, "name": "dense_2", "inbound_nodes": [[["lstm_7", 0, 0, {}]]]}, {"class_name": "Dense", "config": {"name": "dense_3", "trainable": true, "dtype": "float32", "units": 61, "activation": "softmax", "use_bias": true, "kernel_initializer": {"module": "keras.initializers", "class_name": "GlorotUniform", "config": {"seed": null}, "registered_name": null}, "bias_initializer": {"module": "keras.initializers", "class_name": "Zeros", "config": {}, "registered_name": null}, "kernel_regularizer": null, "bias_regularizer": null, "activity_regularizer": null, "kernel_constraint": null, "bias_constraint": null}, "name": "dense_3", "inbound_nodes": [[["dense_2", 0, 0, {}]]]}], "input_layers": [["input_3", 0, 0], ["input_4", 0, 0]], "output_layers": [["dense_3", 0, 0]]}}, "training_config": {"loss": "sparse_categorical_crossentropy", "metrics": [[{"class_name": "MeanMetricWrapper", "config": {"name": "accuracy", "dtype": "float32", "fn": "sparse_categorical_accuracy"}}]], "weighted_metrics": null, "loss_weights": null, "optimizer_config": {"class_name": "Custom>Adam", "config": {"name": "Adam", "weight_decay": null, "clipnorm": null, "global_clipnorm": null, "clipvalue": null, "use_ema": false, "ema_momentum": 0.99, "ema_overwrite_frequency": null, "jit_compile": false, "is_legacy_optimizer": false, "learning_rate": 0.0010000000474974513, "beta_1": 0.9, "beta_2": 0.999, "epsilon": 1e-07, "amsgrad": false}}}}, "weightsManifest": [{"paths": ["group1-shard1of2.bin", "group1-shard2of2.bin"], "weights": [{"name": "bidirectional_1/forward_lstm_4/lstm_cell/kernel", "shape": [128, 512], "dtype": "float32"}, {"name": "bidirectional_1/forward_lstm_4/lstm_cell/recurrent_kernel", "shape": [128, 512], "dtype": "float32"}, {"name": "bidirectional_1/forward_lstm_4/lstm_cell/bias", "shape": [512], "dtype": "float32"}, {"name": "bidirectional_1/backward_lstm_4/lstm_cell/kernel", "shape": [128, 512], "dtype": "float32"}, {"name": "bidirectional_1/backward_lstm_4/lstm_cell/recurrent_kernel", "shape": [128, 512], "dtype": "float32"}, {"name": "bidirectional_1/backward_lstm_4/lstm_cell/bias", "shape": [512], "dtype": "float32"}, {"name": "dense_2/kernel", "shape": [128, 32], "dtype": "float32"}, {"name": "dense_2/bias", "shape": [32], "dtype": "float32"}, {"name": "dense_3/kernel", "shape": [32, 61], "dtype": "float32"}, {"name": "dense_3/bias", "shape": [61], "dtype": "float32"}, {"name": "embedding_2/embeddings", "shape": [28, 128], "dtype": "float32"}, {"name": "embedding_3/embeddings", "shape": [61, 128], "dtype": "float32"}, {"name": "lstm_5/lstm_cell/kernel", "shape": [256, 1024], "dtype": "float32"}, {"name": "lstm_5/lstm_cell/recurrent_kernel", "shape": [256, 1024], "dtype": "float32"}, {"name": "lstm_5/lstm_cell/bias", "shape": [1024], "dtype": "float32"}, {"name": "lstm_6/lstm_cell/kernel", "shape": [128, 1024], "dtype": "float32"}, {"name": "lstm_6/lstm_cell/recurrent_kernel", "shape": [256, 1024], "dtype": "float32"}, {"name": "lstm_6/lstm_cell/bias", "shape": [1024], "dtype": "float32"}, {"name": "lstm_7/lstm_cell/kernel", "shape": [256, 512], "dtype": "float32"}, {"name": "lstm_7/lstm_cell/recurrent_kernel", "shape": [128, 512], "dtype": "float32"}, {"name": "lstm_7/lstm_cell/bias", "shape": [512], "dtype": "float32"}]}]}